data.pth (torch, 4479 bytes, 6 tensors)

l1.weight f4 [8, 44]
000000 39 9f d6 be d6 e0 f3 3e 2a 53 4f be 07 1f c5 3d
       -0.41918352 0.47632474 -0.20246568 0.096250586
000010 0f 0a b2 bd 0f bf 7b 3f c0 0e 34 3b 44 39 31 be
       -0.08693325 0.9833841 0.0027474612 -0.17307001
000020 32 c2 f5 bc 88 f9 d8 be 24 2d 97 be 66 d5 79 3e
       -0.029999826 -0.42377877 -0.29526627 0.24397811
000030 42 89 ea bd f9 60 09 be e3 d8 8f 3e 1c df 9c bd
       -0.11451961 -0.13415898 0.2809516 -0.07659742
000040 5b 12 69 3f d5 af d8 3c 2d de 49 be da 8a 19 3d
       0.91043633 0.02645103 -0.1971366 0.037485935
000050 18 92 16 3e 8b 6a 2a bd c8 d9 45 bd a3 b4 2c bd
       0.14704168 -0.041605514 -0.048303396 -0.042164456
000060 02 0f 0c 3f cc 71 30 3e 24 1a 1c 3f 25 8c 92 bd
       0.547104 0.1723091 0.6097739 -0.07155637
000070 39 fc 25 3f 8c ff 40 be 70 6b c7 3c 2b 60 20 3f
       0.64837986 -0.18847483 0.024343222 0.6264674
000080 e8 f7 be 3e 62 4a 47 be 7e 9c d6 3e 52 52 44 bf
       0.37298512 -0.19461969 0.4191627 -0.7668811
000090 47 fa e3 bd ec 71 8c 3e 9a 3a 64 bd 85 6b 1e 3c
       -0.11131721 0.27430665 -0.05571995 0.009669189
0000a0 58 f4 85 be ac c4 f7 bc 0c 8c 17 be c1 28 f1 3d
       -0.26162982 -0.030245148 -0.14799517 0.11775351
0000b0 6a 57 4a be 95 bf 1b 3f 13 0f b6 be a2 0b 0e 3f
       -0.19759908 0.60839206 -0.35558376 0.554865
0000c0 b0 31 49 3f 49 38 ca be 60 66 63 3c 26 e6 91 be
       0.7859144 -0.39496067 0.013879389 -0.28495902
0000d0 a1 a6 1e 3f 5e f9 07 bf f8 7e 0b be 90 78 fd 3e
       0.61973006 -0.5311488 -0.13622653 0.49506044
0000e0 7f c5 48 be 01 71 16 3d 67 15 07 3f 8b 58 06 3f
       -0.19606589 0.036728863 0.5276703 0.52478856
0000f0 2b fd c0 be dc 84 60 3f 16 45 86 be cb 94 62 3f
       -0.37693152 0.8770273 -0.26224583 0.8850829
000100 f8 51 3a 3f 58 ca d3 3e 68 2b 3a be 10 6b 2c 3e
       0.72781324 0.41365314 -0.1818062 0.16837716
000110 ab ae 2b 3f e2 11 93 3e d3 18 31 be 2f 0a 0d be
       0.670634 0.2872458 -0.17294626 -0.13773416
000120 8d 91 09 3f f2 38 62 be 44 30 eb 3d 7a 08 4f be
       0.5373772 -0.22092035 0.11483815 -0.20218077
000130 a9 4d b6 3e 4e 78 da be a5 f0 35 3f 78 38 16 bf
       0.35606125 -0.4266991 0.7107032 -0.58679914
000140 f6 b8 f7 ba 16 d2 a2 3e b4 21 71 bd 80 9b 80 bb
       -0.0018899727 0.31800908 -0.058870032 -0.003924787
000150 59 da 7f be e8 8c ab bd 8f 19 99 be 8e 80 32 3e
       -0.24985637 -0.08376485 -0.29902312 0.17431852
000160 b8 f5 a8 bd 67 96 34 bd b7 99 26 3f 99 30 af 3e
       -0.08249992 -0.044088747 0.650783 0.34216765
000170 c7 2c 08 3f 70 4f 1a bf 02 b3 a2 3e 67 33 54 bd
       0.53193325 -0.6027746 0.31777197 -0.051806834
000180 6a 6a 19 3f 4b 88 6a be 98 ce 5b bc a5 c1 42 3e
       0.59928 -0.22903554 -0.013415955 0.19019182
000190 0b 2d 06 be 54 ed 59 3e ad 93 0d 3e f3 28 12 3f
       -0.1310312 0.2128194 0.13825865 0.57093734
0001a0 83 53 1a bf ca 78 51 3f 82 0c 3f bd 40 8b 22 3f
       -0.6028368 0.81824934 -0.046642788 0.6349373
0001b0 fb 0c 3d 3f ea 18 fd 3e 61 16 ca 3e 3d ec 8a 3e
       0.7384793 0.4943307 0.394702 0.2713336
0001c0 ff 55 b8 bd 30 c8 2f 3e 32 d6 83 be 98 52 59 3e
       -0.090007775 0.17166209 -0.25749356 0.21222913
0001d0 cc 5b 27 3e 2d 8c 0c 3f df 5a c6 3e 46 98 b3 be
       0.16343611 0.5490139 0.38741204 -0.35077113
0001e0 f5 7a e9 bd b2 99 0f bd e6 fe 2a 3e 5c 46 32 be
       -0.11400405 -0.035058685 0.16698799 -0.17409652
0001f0 2e 85 96 3d b0 d6 13 3f 59 44 d5 3e 05 d8 d0 3e
       0.07349621 0.5774946 0.41653708 0.4078981
000200 0c d8 4d be 16 78 62 3e 23 63 80 be 21 74 af 3b
       -0.20101947 0.22116122 -0.25075635 0.00535442
000210 3b 6c 76 be 77 aa 2f 3e e6 60 d3 3e 8e 93 c0 be
       -0.24064724 0.17154871 0.41284865 -0.37612575
000220 79 f0 67 be 9c 14 10 3f fb ee ee 3e 50 85 f9 3e
       -0.22650327 0.5628145 0.46666703 0.48734522
000230 c8 fd f6 bd 47 c8 4f 3f 62 4b 0c 3f c9 79 e5 3e
       -0.12060124 0.81164974 0.54802525 0.44819477
000240 0f 69 20 3f a6 ea cc 3e c8 44 2c 3e 30 d4 62 be
       0.62660307 0.40022773 0.16823113 -0.22151256
000250 fb 92 18 3f 3a 46 dc be b5 47 7d be 15 b5 e7 be
       0.59599274 -0.4302233 -0.24734385 -0.45255342
000260 0e 6d c9 be 97 60 ee 3e 36 be 2b 3f 23 0d 01 3f
       -0.39341015 0.46558067 0.67087114 0.5041067
000270 9b 99 2c 3c 01 26 0d 3f 15 01 0b 3f 35 16 14 be
       0.010534669 0.55136114 0.54298526 -0.14461596
000280 45 fc 26 3e a5 6b 30 3f e7 30 8f 3e e8 9f e2 3e
       0.1630717 0.6891425 0.27966997 0.44262624
000290 91 17 43 3d 54 52 25 3f 2e 50 d0 3d 57 d1 05 bf
       0.047629897 0.6457875 0.10171543 -0.5227255
0002a0 7f 79 5d be eb 27 5f be 17 60 09 3f d4 8c 06 3f
       -0.21628378 -0.21792571 0.53662246 0.52558637
0002b0 61 74 16 3f 94 ae b3 3e 89 cd 09 3f 80 8f 14 be
       0.5877133 0.3509413 0.53829247 -0.14507866
0002c0 fa 74 75 3f 8b 46 dd 3d 7e 5e 6b bc c3 21 ab 3e
       0.9588162 0.10804471 -0.01436579 0.33424196
0002d0 a4 42 ac 3e 40 fc 0f bf e4 8d 92 3d 16 f3 7b 3c
       0.33644593 -0.5624428 0.0715597 0.01537778
0002e0 d9 ff 7b 3e 34 11 1a be b2 b3 6a 3c 2b e9 c2 be
       0.24609317 -0.15045625 0.014325069 -0.38068518
0002f0 cf 46 0c 3d 97 48 e5 bd 88 25 49 bd 22 5f 9b 3e
       0.034247216 -0.11195486 -0.04910806 0.30346018
000300 03 fc 0f bf fd b2 b4 3e 6e 24 3e 3f 28 c6 90 3e
       -0.56243914 0.35292807 0.7427434 0.2827618
000310 d0 2a e5 3e f5 c1 a7 3e 46 0d 4f be f7 da 8f 3e
       0.44759226 0.32765165 -0.20219907 0.28096744
000320 30 31 7a be dc fe 81 be d8 d3 08 bf 62 58 43 3f
       -0.24432826 -0.25389755 -0.5344825 0.76306736
000330 55 77 59 bd d1 cc b8 bd d5 32 02 be 3e 9a 07 bf
       -0.05309232 -0.09023441 -0.12714703 -0.5296973
000340 5b d4 06 be 98 de ae 3c 82 b8 41 be b4 fc b1 3f
       -0.13166945 0.021346375 -0.1891804 1.3905244
000350 72 9a 4b 3f 2d 15 a8 3e c0 c5 9b bb d3 67 a7 bd
       0.7953254 0.32828656 -0.0047537982 -0.081741
000360 f3 83 7c bd de 97 7f 3d 83 89 ff bb 29 ec 1c 3f
       -0.061649274 0.06240069 -0.007798375 0.6129785
000370 e5 95 ae bd f2 fc 51 3c 77 66 31 3f d1 44 0a be
       -0.08524684 0.0128166545 0.69296974 -0.13502814
000380 4d 35 a5 be 24 5d e2 3e 05 25 c0 3e 2b 75 f7 3d
       -0.32267228 0.44211686 0.37528244 0.12082895
000390 38 fd d5 bd 7d 87 ad 3e d3 49 aa 3d e4 65 b4 3e
       -0.10448688 0.33892432 0.08314862 0.35233986
0003a0 0a f2 85 be 44 53 75 3e b4 ae 90 3e cc 48 24 be
       -0.26161224 0.23957545 0.28258288 -0.16043395
0003b0 73 fc 1c 3f d9 c4 87 be 41 56 9f bc b5 d2 87 be
       0.61322707 -0.2651737 -0.019450309 -0.26527944
0003c0 b7 e1 87 be 1c d7 62 be 61 6f 01 3f ee 51 48 be
       -0.26539394 -0.2215237 0.50560576 -0.19562504
0003d0 e5 0f c4 3e d4 48 ea 3e b4 56 28 3e 59 f3 b9 be
       0.38293377 0.45758688 0.16439325 -0.36318472
0003e0 87 88 ad 3e 5e ed 2a 3f 81 1b a5 3e 76 44 be 3e
       0.33893225 0.66768444 0.32247546 0.37161607
0003f0 2c 25 a8 3e cf cf 5d 3e 13 76 53 3e 8f c6 16 3e
       0.3284086 0.21661304 0.2065051 0.14724182

l1.bias f4 [8]
000000 f3 45 3a 3f 64 cf 1c 3f 54 51 1a 3f ad 4b 34 3f
       0.72762984 0.6125395 0.60280347 0.7042797
000010 9e fb 0f 3f f8 6a 73 3e b6 42 46 3f 03 37 51 3f
       0.5624331 0.23771274 0.7744554 0.81724566

l2.weight f4 [8, 8]
000000 a8 94 92 3f 0b 20 4d 3f 34 49 80 bf d6 0c 59 3e
       1.1451616 0.8012702 -1.002234 0.21196303
000010 29 06 13 bf 23 7f ef 3e 17 bf 9f be 91 5b a4 3e
       -0.57431275 0.46776685 -0.31200477 0.3210111
000020 11 55 59 bc 40 33 a8 3f 73 1f d3 3f 04 3e ed 3d
       -0.01326491 1.314064 1.6493973 0.11584094
000030 2d 78 86 be 81 db 90 bd 4c 21 9d bd a9 a1 68 be
       -0.26263562 -0.07073117 -0.076723665 -0.22717918
000040 82 1e 5c 3e 8d 57 9a be 70 02 b6 bc 50 68 17 bd
       0.21496013 -0.3014492 -0.02221796 -0.036964715
000050 20 9c ab be 1c 26 1d be fa f7 4d 3e 68 65 a9 be
       -0.3351755 -0.15346569 0.20114127 -0.3308518
000060 2f 05 02 bf cf 44 3c bf 5c 50 4a be b6 4c 7f 3f
       -0.5078916 -0.73542494 -0.19757217 0.99726427
000070 b5 21 0a bf 71 38 10 3f 60 70 b7 3e 34 66 2b 3f
       -0.5395768 0.5633612 0.35827923 0.66952825
000080 6c d0 d1 3e 5a f7 bd be e2 66 79 bd 1e 78 96 3e
       0.40979326 -0.37102777 -0.060889132 0.29388517
000090 f3 9b 27 bf 60 3d c8 be 66 fc 85 3f bf 23 93 3f
       -0.65472335 -0.39109325 1.0467651 1.1495284
0000a0 6f 7f 7d 3f 56 8e 7b 3f f6 91 e0 3e 30 12 39 3d
       0.99022573 0.9826406 0.4386136 0.04518336
0000b0 a5 7c 14 bf f0 64 98 be b2 87 13 3f 51 17 57 3f
       -0.5800269 -0.2976451 0.5762893 0.84019953
0000c0 68 63 6f be 52 3c 60 be 50 17 1a 3d fd fc 8a be
       -0.23377764 -0.2189801 0.03761989 -0.2714614
0000d0 40 ba 7d 3d 60 3b f7 bc 4e 3b 4d be db 81 ae be
       0.0619452 -0.03017968 -0.20042154 -0.34083447
0000e0 31 a9 44 bf 87 8c 1f 3f 7c a9 8b 3f 5b 63 81 be
       -0.76820666 0.623238 1.0911098 -0.25271115
0000f0 5c ef e2 3f 89 71 5d bf de 32 74 3f 50 1d 68 3f
       1.7729297 -0.86501366 0.9539012 0.9066973

l2.bias f4 [8]
000000 8d 2f 8d 3e bc fe b2 bd e7 f6 81 be 83 4c 30 3f
       0.2757534 -0.08739993 -0.25383684 0.6886675
000010 5a f4 b8 3e ba c8 b1 3e e0 cb ad be 42 37 1a 3f
       0.36123925 0.34723455 -0.33944607 0.60240567

l3.weight f4 [6, 8]
000000 4b 86 15 3f b7 17 0e 3f 3f 7c 94 3e 39 df 4d bf
       0.5840804 0.55504936 0.29001042 -0.80418736
000010 1c d9 99 bf c1 28 f4 3e 36 2a da bd f6 da 52 bf
       -1.2019382 0.47687343 -0.10652582 -0.8236536
000020 91 52 1c 3f 42 f9 8f bf 75 82 89 3e 9a 0f 15 3e
       0.61063486 -1.1247942 0.26857343 0.14556733
000030 16 33 27 3f 55 e2 e9 3e 00 c8 31 be c6 36 97 bf
       0.65312326 0.4568049 -0.1736145 -1.181359
000040 fd 45 4b bf 79 2d 2a 3f e6 59 08 3e 75 09 82 bf
       -0.7940367 0.66475636 0.13315544 -1.0159136
000050 20 00 ab 3e 7e 62 20 3e 96 d2 1f 3e 40 6e 91 3e
       0.33398533 0.15662572 0.15607676 0.28404427
000060 6e 1b 88 bf db 76 95 bf fe 54 2d 3e af 66 e2 3e
       -1.0633371 -1.1676897 0.16926953 0.44218966
000070 e8 01 3c 3f 38 d1 42 be e5 dc 02 be e6 4b 1d 3e
       0.7344041 -0.19025123 -0.12779577 0.15360984
000080 43 f9 68 bf 96 09 c1 3e 97 6a 9d 3e 61 3b 48 3f
       -0.91005343 0.37702626 0.30745384 0.78215605
000090 af 90 9b be 39 17 fc be 52 a8 27 be 2d ca 73 bf
       -0.30383822 -0.49236467 -0.16372803 -0.9523037
0000a0 4f d0 42 bf 28 e6 b5 bf 73 19 a8 3e 05 99 5e be
       -0.76099104 -1.4210863 0.32831916 -0.2173806
0000b0 a2 3e 17 bf 76 b5 82 bf b0 81 7d 3d 0e be 86 3f
       -0.59079945 -1.0211627 0.061891258 1.052675

l3.bias f4 [6]
000000 04 28 62 bd 84 f7 f6 bd 94 03 6d be 7c 82 3e bf
       -0.055213943 -0.120589286 -0.23145896 -0.74417853
000010 58 83 a3 be b2 2c 85 3f
       -0.31936145 1.0404265
